data/sgies/osnet/osnet_x0_25_msmt17.onnx (onnx, 843170 bytes, 244 tensors)

conv2.0.conv2a.conv1.weight f4 [16, 16, 1, 1]
000000 1f b1 ac 3c 39 b5 81 bd d8 d0 4e bd eb 22 90 bc
       0.021080552 -0.063333936 -0.050492138 -0.017594775
000010 f5 69 61 bd ec b7 2b bd ef 4d fb bc 15 68 ae ba
       -0.05503269 -0.04192345 -0.03067681 -0.0013306165
000020 10 5c a1 3c 8a 3e 61 bd 53 27 3e 3d e3 2c bc bc
       0.01969722 -0.054991283 0.04642422 -0.022970622
000030 f1 b9 2c bd 80 b8 b8 3c cc 38 2b bd 25 29 02 3c
       -0.042169515 0.022548914 -0.041802213 0.00794438
000040 af b5 dd 3c c6 23 ad bc e5 b9 95 3d b8 88 5b bc
       0.027064173 -0.021135222 0.07310847 -0.0133992955
000050 39 40 5f 3b 5e a2 81 bd 32 91 41 3d d1 82 b0 bc
       0.003406538 -0.06329797 0.04725761 -0.021546753
000060 a5 06 d5 3b 6f f0 bf 3d 21 09 10 3d 9a d7 32 bd
       0.006501036 0.09372031 0.035164956 -0.043662645
000070 81 56 9d bd cb 61 98 3c ce 48 1f 3c 5e 8d f7 3c
       -0.07682515 0.018601319 0.009721948 0.030218776
000080 4e 0e 00 80 0d 1e 08 2b d4 93 d3 98 d4 03 00 80
       -5.132e-42 4.835861e-13 -5.469149e-24 -1.373e-42
000090 0e 22 00 80 d9 ed 5b 21 c4 2e 8d aa cf 8d 3b 8e
       -1.2217e-41 7.4514875e-19 -2.5079082e-13 -2.3117808e-30
0000a0 ec 14 00 00 7c 09 00 00 6c 0b 00 00 70 5b a2 24
       7.505e-42 3.402e-42 4.097e-42 7.04112e-17
0000b0 c0 63 30 98 3b bd 4d 15 68 1e 00 80 f2 13 00 80
       -2.2797828e-24 4.1548697e-26 -1.0908e-41 -7.155e-42
0000c0 db e1 16 3c a4 a1 be bd 65 a6 85 3c 32 40 05 3d
       0.009209122 -0.09308174 0.016314695 0.032531925
0000d0 de 1a 90 3c e2 93 18 be fc d9 7a 3c 49 ee ce 3c
       0.017590936 -0.14900163 0.015310761 0.025260108
0000e0 f3 d2 c2 3c 6e f4 37 3d 46 0a f2 3d 1d 09 64 be
       0.023782229 0.04491084 0.11818366 -0.22269101
0000f0 23 f4 02 3e cc c6 d9 bc 93 67 9b 3d 98 0c 61 3c
       0.12788443 -0.026584052 0.075881146 0.013735913
000100 f7 c9 09 3d e3 fc 80 be aa 92 d4 bb 48 cb 3c 3d
       0.033639874 -0.25192937 -0.0064872103 0.0460923
000110 33 e0 8b bd 85 a2 db 3c a3 63 b9 bd be 7d 8d 3d
       -0.06829872 0.026810894 -0.09052207 0.06908749
000120 49 82 e6 3c 50 2d bf 3c 94 c8 27 3d cf 21 3d 3e
       0.028138297 0.023337036 0.04096277 0.18469928
000130 12 3d 0e 3e b0 0f ea 3d f8 1f 98 3d 46 96 ab 3c
       0.13890484 0.114287734 0.074279726 0.02094568
000140 0c 6a ad 3d 58 56 80 bd c9 eb a7 bb 53 3f 4a bc
       0.084674925 -0.06266469 -0.0051245433 -0.012344199
000150 57 9a 2b bc bf 35 d9 3d f1 4f 04 bd df 8c 3e 3c
       -0.010473809 0.106059544 -0.0323028 0.011630266
000160 12 d1 ae bc 78 84 21 3d f2 99 6f 3c 97 03 9f 3c
       -0.021339927 0.039432973 0.014624106 0.019410891
000170 74 71 d1 bc 1e f8 9c bb 9f 35 e9 bc 2e 6d ae bd
       -0.025566794 -0.00479032 -0.028467951 -0.08516918
000180 af 26 02 bd 6e 7e e0 bb a8 d3 a8 3c 64 1f 51 b9
       -0.031775173 -0.006851009 0.020608738 -0.00019943487
000190 5a ec 93 bb d6 94 cd 3d 3c d8 56 3a 79 8f 16 3d
       -0.0045142593 0.10038154 0.00081956736 0.03675792
0001a0 d0 fd 9c bc ce 68 a2 bc 94 d7 20 bd 3b 92 18 3c
       -0.019163996 -0.019825365 -0.03926809 0.009312208
0001b0 b1 04 3d bd 8d d5 48 3c 76 7e de 3b 3d d0 a6 bc
       -0.046147052 0.012257946 0.0067899777 -0.020362968
0001c0 db 32 00 00 7b 36 00 80 87 32 00 80 28 1b 00 00
       1.8244e-41 -1.9544e-41 -1.8126e-41 9.742e-42
0001d0 b4 1c 00 00 b3 0a 00 80 7e 1d 00 00 cd 37 00 00
       1.0297e-41 -3.838e-42 1.058e-41 2.0018e-41
0001e0 74 32 00 00 3d 38 00 80 a4 34 00 00 8c 1e 00 80
       1.8099e-41 -2.0174e-41 1.8884e-41 -1.0958e-41
0001f0 a4 29 00 00 ae 1f 00 80 8f 24 00 00 5e 31 00 80
       1.4938e-41 -1.1365e-41 1.3115e-41 -1.771e-41
000200 66 c6 5c 3d b1 c6 85 3c 20 06 09 3c fd 30 ab bc
       0.053900145 0.016330095 0.008363277 -0.020897383
000210 b1 64 18 bd 70 0b 79 bd 25 9f 4a 3d 6d 3d a8 bc
       -0.0372054 -0.060801923 0.04946818 -0.020537103
000220 06 36 d9 3c 25 4f 56 3c e3 c5 96 bc 17 0b d9 bc
       0.026515018 0.013080393 -0.018404907 -0.026494546
000230 bd a5 1e 3d 05 da 08 bc ee 51 39 bb da 82 0c 3d
       0.03873228 -0.008352761 -0.0028277594 0.034304477
000240 ab 64 a3 bc eb 44 a7 3d 8c df 98 3c d4 ab 01 3d
       -0.019945463 0.08167442 0.018661283 0.03165801
000250 c1 bc b6 ba c6 5f ca bc 3a d3 12 3d 5c 96 1f bb
       -0.0013941751 -0.024703871 0.035845973 -0.0024351096
000260 49 e9 b4 3c 33 08 32 3d e7 75 75 bd 9f 8f fe 3c
       0.022083895 0.04346485 -0.059926894 0.031074343
000270 30 25 a3 3d 3c b8 57 bc ec d5 c0 bc 10 91 8a bc
       0.07966077 -0.0131664835 -0.023539506 -0.016914874
000280 6e 13 0b 3d d0 6b dd bc 3b c8 6d bd a5 9c 80 bc
       0.033954076 -0.027028948 -0.058052283 -0.015699694
000290 dc 38 47 3c 4a ac 79 bd 39 c8 50 bc cc eb 0b bd
       0.012159552 -0.060955323 -0.012743049 -0.03416042
0002a0 ce 43 db bb 4b c4 79 bd bf 82 9f 3c 99 28 3e 3c
       -0.0066914326 -0.060978215 0.019471524 0.011606359
0002b0 92 59 83 bd 81 91 49 bb 87 54 2f 3c 36 f6 20 3d
       -0.064135686 -0.0030756893 0.010701305 0.039297305
0002c0 94 16 00 80 ee 1c 00 00 dd 03 00 00 94 01 00 00
       -8.1e-42 1.0378e-41 1.386e-42 5.66e-43
0002d0 21 0d 00 00 cb 0a 00 80 39 17 00 00 1c 04 00 80
       4.71e-42 -3.872e-42 8.331e-42 -1.474e-42
0002e0 63 24 00 00 c2 06 00 80 12 01 00 80 85 20 00 80
       1.3053e-41 -2.424e-42 -3.84e-43 -1.1666e-41
0002f0 0b 1e 00 00 7e 10 00 80 9d 03 00 80 12 14 00 00
       1.0777e-41 -5.916e-42 -1.296e-42 7.2e-42
000300 89 c0 90 1c 23 b2 95 b2 ee cd b3 ae 78 55 5a 21
       9.57889e-22 -1.742689e-08 -8.176558e-11 7.397439e-19
000310 77 29 9c aa 2a ce 96 ad d1 e5 6c b1 b3 c8 c8 a4
       -2.773994e-13 -1.7144581e-11 -3.4473155e-09 -8.707617e-17
000320 52 ec 68 2d 39 ee 3c 29 89 a2 2c 20 13 9b 14 b6
       1.3240147e-11 4.195101e-14 1.4622745e-19 -2.2143984e-06
000330 c5 bf e0 34 1b 2f 24 a2 16 08 cb 04 83 0d 0e 16
       4.1862782e-07 -2.2251082e-18 4.7732496e-36 1.1474932e-25
000340 ec b6 b6 ba eb 5e dd 3d c7 c5 95 3c 24 71 57 3c
       -0.0013940013 0.1080912 0.018282784 0.013149533
000350 d2 97 19 3e 61 ff 4d 3d 32 0a 85 be d1 eb a1 3b
       0.14999321 0.050292376 -0.2598434 0.0049414416
000360 7c 4f 82 be 1a f6 4d 3d 01 a6 c8 3c 74 08 8b bd
       -0.25451267 0.05028353 0.02449322 -0.06788722
000370 ac d8 f0 3d 49 21 8b bd 22 cc 50 bc 42 b1 f3 b8
       0.11760077 -0.06793458 -0.012743982 -0.0001162016
000380 30 0d 3a bb 91 3c f2 3c a4 1c f7 3c 20 80 47 bd
       -0.0028389208 0.029569896 0.030165024 -0.048706174
000390 31 fe 3d 3d 9a c1 44 bd a0 83 d7 bb 8d 33 95 bc
       0.046384994 -0.048036195 -0.00657697 -0.018213058
0003a0 78 82 00 bc 30 b4 65 3d d5 5a 0e 3d 65 c1 43 3d
       -0.007843606 0.056080043 0.034754593 0.047791857
0003b0 55 37 3f ba ce 2e 73 bb 6b f8 0e 3d e2 6c eb bc
       -0.0007294317 -0.0037106755 0.03490488 -0.028738443
0003c0 51 00 44 3a 88 bf 43 3e a9 74 a4 bc 39 36 48 bc
       0.0007476854 0.19116032 -0.02007516 -0.012219959
0003d0 64 ba c1 bc c7 ca 73 bc 51 b9 43 bd c8 7f 15 bd
       -0.023648448 -0.014879889 -0.047784153 -0.036498815
0003e0 15 ba 72 bc a8 9b 7a 3b 86 85 b7 bc 4f 71 00 be
       -0.014814873 0.003823975 -0.022402536 -0.12543224
0003f0 94 f3 bc bc 45 4b ca bc de d5 6a bd 64 c8 e8 3c
       -0.023065366 -0.024694094 -0.057332866 0.028415866

conv2.0.conv2b.0.conv1.weight f4 [16, 16, 1, 1]
000000 5a 08 87 3b f7 3c 07 be c9 54 89 bc 36 ed a3 3b
       0.0041208686 -0.1320685 -0.016764062 0.005002643
000010 b8 5f 8e 3c 7d 69 2d 3d ab 45 45 3d 4a 05 06 bd
       0.017379627 0.04233693 0.048162144 -0.032719888
000020 64 01 58 3d 4f 80 d4 38 63 33 a0 bb 90 8e 9b 3d
       0.0527357 0.00010132847 -0.0048889383 0.07595551
000030 f2 6b 43 3c f9 f0 e5 3c d7 58 de 3c 72 7e fa bb
       0.011927592 0.028069006 0.027141972 -0.007644468
000040 a0 41 35 3d 65 f0 b3 3c dd 62 5d bc b3 10 e9 bd
       0.044252038 0.021965215 -0.01351234 -0.11380138
000050 b9 df 51 ba 65 a3 8a 3d 53 48 b4 bc 0c 49 05 bb
       -0.00080060546 0.06769446 -0.022007143 -0.0020337729
000060 d1 fd bf 3c 16 0b 0b 3b 3b 7a 8d bd ff 81 79 3d
       0.023436459 0.0021216325 -0.06908079 0.06091499
000070 ab 70 40 bd 0b 1f a9 3c 4e de 39 3c be 04 65 3d
       -0.04698245 0.020644685 0.0113445055 0.055912726
000080 8f b3 88 bc 93 cc f9 bd a2 12 73 bd e0 0e 76 3c
       -0.016687183 -0.121972226 -0.05934394 0.015018195
000090 ff 2a 26 bd 7e a6 28 bd b0 e9 ea 3d 97 ce c5 bd
       -0.040568348 -0.041174404 0.114703536 -0.096585445
0000a0 a4 33 8c 3d 6f 9a dd bc 2e 48 7f bc 24 af 9b 3d
       0.06845787 -0.027051179 -0.015581174 0.07601765
0000b0 51 08 5a 3c 29 68 14 bd 6e 56 8d bd b6 11 ec bc
       0.013307647 -0.036232147 -0.06901251 -0.028817039
0000c0 f3 8b ca bc cd 6e 1a 3d 1b f7 98 bd 9c 43 b0 3c
       -0.024724936 0.037703324 -0.07469007 0.021516614
0000d0 ca 0e 35 3d 98 3b 1b 3d a4 43 87 3d e5 5d df bb
       0.044203557 0.03789863 0.06604698 -0.006816613
0000e0 87 01 dd bc 8c 62 0f 3d 69 dd 57 3d 99 67 16 bd
       -0.026978267 0.03500609 0.052701388 -0.036719892
0000f0 25 cf a9 3b 92 1e a3 bc d1 c1 6c b9 8f 20 1e bd
       0.0051821643 -0.019912038 -0.00022578916 -0.03860527
000100 72 73 b9 bc 15 3f 0a 3e a6 f8 d4 3c 94 a0 29 3c
       -0.022638056 0.13500626 0.025997471 0.010353226
000110 13 5c 5e bc 85 2c 39 bb 8c ff b1 3c 64 31 9a bd
       -0.013571757 -0.0028255295 0.0217283 -0.07528952
000120 e1 41 17 bc 80 61 d5 bc d7 56 23 bd bb 66 ed bd
       -0.009232015 -0.026047468 -0.03987774 -0.1159186
000130 bd 4e c6 bc 64 09 5f bd 11 2f f4 bc 9e 32 8a bc
       -0.024207467 -0.054452315 -0.0298076 -0.01686984
000140 b8 75 0b bd 70 07 c9 bd eb 25 c3 bd f9 91 88 bb
       -0.034047812 -0.09815872 -0.09528717 -0.004167792
000150 44 71 a5 bb 9d cc 79 bc 76 79 53 3e 01 26 bd bb
       -0.0050489027 -0.0152465375 0.20651802 -0.0057723527
000160 57 df 84 3c ac 06 01 bd ae cb 3b bd 3e 0d 6b bc
       0.016219778 -0.031500503 -0.04584854 -0.014346419
000170 40 68 d6 bc f0 c4 8f 3c 59 72 90 bc 6f d0 57 3c
       -0.026172757 0.017549962 -0.01763265 0.013172253
000180 fe ab ed 3c b3 cc cd 3c 83 b4 6e 3d ae 66 d8 bb
       0.029012676 0.025122022 0.05827762 -0.0066040372
000190 cf fe 3a bd 40 2f 0e 3d ee 34 a3 3b f4 e4 b2 bc
       -0.04565316 0.03471303 0.004980675 -0.021837689
0001a0 c3 ad 22 bd e7 70 8a 3b 53 ca cf bc 33 2a a1 3d
       -0.039716493 0.004224885 -0.02536503 0.07869377
0001b0 c3 b9 20 3c a5 f1 a6 bc b0 7e d3 bb bd 72 9f 3c
       0.009809914 -0.020378897 -0.0064543113 0.019463891
0001c0 47 21 e7 3b 2c 7e c9 bc d9 29 26 bc 1e 00 2a bc
       0.0070535275 -0.024596296 -0.010141813 -0.0103760045
0001d0 23 86 ca bb bf cb 03 3e 5f ab 91 bc ab 9c 64 bc
       -0.006180541 0.12870692 -0.017781911 -0.013953368
0001e0 d1 5c 90 3c 21 0e 3e 3c 69 86 75 bb ed 18 97 3b
       0.017622383 0.011600048 -0.0037464148 0.0046111257
0001f0 59 54 df bd aa 91 89 3c 3f 53 5f bb af b3 29 3c
       -0.1090476 0.01679309 -0.0034076718 0.010357781
000200 9b ea cd 3c b3 15 59 3e 1e a4 81 bd 9a 2f 9d bc
       0.025136283 0.21199684 -0.06330131 -0.019187737
000210 d7 35 9a bc a6 8a 37 3d a4 96 5c 3c b9 db e0 bc
       -0.018824501 0.04480996 0.01346365 -0.027448522
000220 8f 3a 95 3c 5a ae 59 bc b0 86 59 bc 3b 75 e5 bd
       0.0182164 -0.013286198 -0.013276741 -0.112040006
000230 43 ab 0c bd 67 f2 4e bd f6 97 e4 3c 5a fc 80 3d
       -0.034343015 -0.05052414 0.027904492 0.06298132
000240 5f 35 d6 3c 1b ce 17 ba 07 ec 45 bd 10 23 e1 b8
       0.026148496 -0.0005790905 -0.048320796 -0.00010735367
000250 2b 59 88 3c ca 8a 9b bd 20 41 ae 3d 3b 5a 89 bd
       0.016644081 -0.07594831 0.08508515 -0.06706663
000260 9d 95 4b 3d 4d d7 be 3c d8 94 99 3d 2d 6d bf bd
       0.04970323 0.023296023 0.07499093 -0.093469955
000270 fb 0c 79 bd bf 17 15 3d 43 bc f7 3c 6f af 64 3c
       -0.060803395 0.0363996 0.030241137 0.013957842
000280 4e 97 7a bd 4d 77 b9 bc f2 15 6d 3d 50 01 c1 3c
       -0.06117945 -0.022639895 0.057882257 0.023560196
000290 02 86 68 bb 9a b0 31 3e cd 79 8c bc dc ef 68 3d
       -0.0035480266 0.17352524 -0.017147923 0.056869373
0002a0 bb 4d e9 3c c5 f1 a2 bd 6d bd 8a bd d8 7d 01 bd
       0.028479448 -0.0795627 -0.06774411 -0.031614155
0002b0 61 45 e0 bd 88 9a 02 3d 0e 10 a6 bc 11 9a 86 bd
       -0.10950733 0.031885654 -0.020271327 -0.065723546
0002c0 87 0d 3a bd c1 14 5c be 85 14 c1 3c 93 f5 12 3c
       -0.045423057 -0.21492292 0.023569355 0.008969682
0002d0 2e ab 4f bc 8e be b1 bb 21 85 cf 3c 7a 55 31 3c
       -0.01267509 -0.005424327 0.025332035 0.010823602
0002e0 4d 73 f1 bc 0c 6a 6b 3b ab 43 ee bc d0 49 74 3e
       -0.029473925 0.0035921363 -0.029085001 0.23856282
0002f0 b4 72 5f 3d 4e c6 8f 3d c8 47 28 3d 46 ad 11 bd
       0.05455275 0.070202455 0.04108408 -0.035565637
000300 fc 68 4b 3c 39 c4 f8 3d 65 8d a3 3d 96 a8 aa 3b
       0.012415167 0.121468015 0.07985953 0.0052080853
000310 a4 1d 3b bc 55 61 e7 3b 9e 54 69 be 84 85 07 bd
       -0.011420641 0.0070611634 -0.22786185 -0.033086315
000320 fe 2e 87 bc 1e fa e5 3c f6 44 d5 3b e3 98 83 3c
       -0.0165019 0.028073367 0.006508465 0.016064113
000330 87 b1 69 3c a1 79 23 bd 52 2a f0 3c 22 0b 55 3c
       0.014263517 -0.039910916 0.029317055 0.013003143
000340 a8 10 51 bd c2 c8 b7 3e 6d 26 c2 3d 20 f9 f7 3b
       -0.051041275 0.35895354 0.094799854 0.00756754
000350 6a 59 94 bc 52 1d 4e 3c 2e 6a 82 bd 55 31 25 3d
       -0.018109042 0.012580233 -0.063679084 0.04033025
000360 20 a1 46 3c 05 d0 69 3b 1a 82 af bc 0a 73 b7 be
       0.012123376 0.0035676968 -0.021424342 -0.35829955
000370 1b 33 8b bd f1 4c 6c bd 15 c3 65 3c 14 c0 52 bd
       -0.06796857 -0.057690565 0.014023562 -0.05145271
000380 bb f5 b0 3b 8d 4a bd bd 57 52 73 3d f1 2a 8c bd
       0.005400387 -0.09242735 0.059404697 -0.06844128
000390 5d f3 34 3d 0e 09 bb 3d cc 71 51 bc f2 39 5c 3d
       0.0441774 0.091325864 -0.012783479 0.0537662
0003a0 93 e3 63 3c 63 3f a9 bb 38 85 c2 bc 66 6b db bd
       0.013909238 -0.005165027 -0.023745164 -0.10713844
0003b0 4c 8c 81 3c 2c 35 0b 3c f8 d3 80 3c d9 94 49 3c
       0.01581397 0.008496564 0.015726075 0.012303554
0003c0 fd 81 b6 bb d2 c3 85 be 5c 95 28 3e a9 17 2d bd
       -0.005569695 -0.26125962 0.16463226 -0.042258892
0003d0 2f 88 fe 3c 8b 74 2f bd dc 23 b1 3d b5 6f be 3d
       0.031070797 -0.042835753 0.08649418 0.0929865
0003e0 ea 62 40 bd 2a 39 90 bc b0 e8 ac bb d2 e8 76 3e
       -0.04696933 -0.017605383 -0.005276762 0.24112251
0003f0 08 f0 21 3d c5 c7 a1 3d 16 fe 6e 3c 1e 01 44 bc
       0.039535552 0.07899431 0.014586946 -0.011963157

conv2.0.conv2b.1.conv1.weight f4 [16, 16, 1, 1]
000000 af 0b 00 00 71 0f 00 80 90 1b 00 80 6f 1d 00 00
       4.191e-42 -5.54e-42 -9.888e-42 1.0559e-41
000010 ac 04 00 00 db 04 00 80 94 09 00 00 27 1b 00 80
       1.676e-42 -1.742e-42 3.436e-42 -9.74e-42
000020 74 1d 00 80 6c 01 00 00 37 13 00 00 08 19 00 00
       -1.0566e-41 5.1e-43 6.893e-42 8.98e-42
000030 cd 0a 00 00 01 14 00 00 e9 11 00 00 82 12 00 80
       3.875e-42 7.176e-42 6.425e-42 -6.64e-42
000040 f3 0d 4e bb 9c 73 5e 3d 0f e8 d1 bb bc b0 75 bd
       -0.003144142 0.054309472 -0.0064058374 -0.059983
000050 23 9e 1b 3c 8d bb 7f bc cb e4 43 bc 3d 3f d7 3c
       0.009498152 -0.01560868 -0.011956404 0.026275272
000060 3b 29 81 bb ac a5 1a be a1 a3 65 3c f4 4c 5c ba
       -0.0039416826 -0.15102261 0.014016063 -0.0008403801
000070 f3 b5 70 bc 60 0b 59 bc cd 57 0d 3b 5e 34 93 bc
       -0.014691818 -0.013247341 0.0021567226 -0.017969307
000080 8d 66 13 3c e9 85 42 bd 63 af 0c 3d d0 0c 13 bd
       0.008996618 -0.047490988 0.03434695 -0.03590089
000090 03 8a a6 3c ba ac 09 bc 86 50 5f 3c 8f 71 ed 3d
       0.020329481 -0.008402998 0.013630038 0.11593925
0000a0 f0 3e ca bc 7f 2a 96 ba 40 28 1e be 81 25 10 3c
       -0.024688214 -0.0011456757 -0.15445042 0.008798004
0000b0 d5 41 af 3b 6a 9a f3 bc ad 29 43 3d 48 84 ab 3b
       0.005348424 -0.029736716 0.047647167 0.005234275
0000c0 57 da 3e 3b f8 28 c5 3d db e5 23 b9 b1 d8 8e 3c
       0.002912184 0.09626955 -0.00015630519 0.01743731
0000d0 9c 6f f9 3b b8 f6 81 3b 6d f5 0d be 70 bd d2 bc
       0.007612182 0.0039661787 -0.13863154 -0.025725096
0000e0 69 a4 d9 bc a0 92 7f bc 75 03 55 bd 2a 9e a3 3c
       -0.026567655 -0.015598923 -0.05200525 0.01997288
0000f0 5d 57 2b 3b 0a 63 be 3a 6a 67 bb bd a1 8f ac 3c
       0.0026144602 0.0014525366 -0.09150584 0.021064581
000100 95 80 af 3d 26 ff 71 bb b2 41 06 3c 8d 55 a7 3c
       0.08569447 -0.0036925762 0.008194374 0.020426536
000110 05 50 33 3d 90 b9 44 bc 8e 2b 21 bc c8 74 ec bb
       0.043777484 -0.012007132 -0.009837044 -0.00721607
000120 21 40 09 bb 80 f6 57 bc ac b6 59 3c e9 b6 3a be
       -0.0020942765 -0.013181329 0.013288181 -0.18233837
000130 59 dc e7 3c ce ec c5 3c 82 4a 14 3c 50 90 09 3c
       0.028303312 0.024160769 0.009050967 0.008396223
000140 f1 4b d1 bb de 47 45 bd c8 c7 18 3e a1 d1 23 3d
       -0.0063872267 -0.04816424 0.1491996 0.03999484
000150 4c b4 49 3d 21 73 93 3c c0 0c 8f bd aa bc 11 3d
       0.04924421 0.017999234 -0.06984854 0.035580315
000160 5a 61 2b 3e 88 be ea bc b7 5d ac bc 5a 21 00 bc
       0.16736355 -0.028655306 -0.02104078 -0.007820452
000170 3d 87 97 3b 8e 48 f3 bd 75 13 34 bc 6b a6 0d bd
       0.004624276 -0.11879073 -0.010990967 -0.034582537
000180 2c 65 39 bd 38 88 90 bc 44 4a 63 bc 71 36 58 bd
       -0.0452625 -0.01764308 -0.013872687 -0.052786294
000190 0f fa 57 3d 1a ac 4c bd fa f5 6f bc 70 9b 57 3b
       0.05272871 -0.049968816 -0.014646048 0.0032899044
0001a0 29 c6 62 3c c4 9b c0 bc 8e 99 7b 3c 0c 45 47 bd
       0.01384119 -0.023511775 0.0153564345 -0.048649833
0001b0 62 a4 53 3d a5 ed 6b bb 35 22 c5 bb 53 21 b8 bc
       0.05167044 -0.0035999801 -0.0060160407 -0.022476828
0001c0 47 92 c8 bc a5 31 bb 3c 8b 72 1c 3e 9a cd 97 bd
       -0.024483813 0.02285082 0.1527807 -0.07412262
0001d0 95 98 f5 3d 13 3b 37 3d 3a 6f a0 3c 60 c6 3b 3d
       0.11991993 0.044734072 0.019584287 0.045843482
0001e0 e0 59 b7 3d 90 c2 94 3c 2a a4 80 3c d7 96 58 bd
       0.08952689 0.01815918 0.01570328 -0.052878227
0001f0 9f 42 02 3d b5 95 81 be 5c b1 01 bc 7b 78 49 3e
       0.031801816 -0.2530953 -0.007915821 0.19674866
000200 d4 96 d6 bc 7c 03 59 bc af 7d ae 3c 39 3b b4 bc
       -0.026194967 -0.01324546 0.021300165 -0.022000896
000210 d8 e0 9d bb bd f9 ac 3c f9 30 e1 3b 8a e8 d3 3c
       -0.004818063 0.021115178 0.006872293 0.02586772
000220 5c 7d 99 3d 73 27 74 bb 2b 00 88 3d 20 32 4e 3c
       0.074946135 -0.003725496 0.06640657 0.012585193
000230 ef 89 2a 3d af 7d 54 3b f1 58 86 bc d1 f8 13 3d
       0.04163545 0.0032423546 -0.016399832 0.03612596
000240 4f 2f ef bc ec 4c cd bd 6d b8 cf 3c fd b4 7c bc
       -0.029197363 -0.10024437 0.025356496 -0.01542401
000250 7e eb ca bc 75 fe 1c bc 69 56 c0 3c 66 83 30 bb
       -0.024770495 -0.009582152 0.023478704 -0.0026933788
000260 74 f7 0e bd 90 de 30 3c aa a5 32 bd 82 5e 53 3b
       -0.03490396 0.010795251 -0.04361502 0.0032252376
000270 f4 94 91 bc b3 71 90 bc fa 0a 5b 3d ae 7a ea 3c
       -0.017771222 -0.017632341 0.053477265 0.028622951
000280 b2 57 54 bb 1f 1b 4e bd 1a fb 17 3d 09 3e 5a 3c
       -0.0032400903 -0.050318833 0.037104703 0.013320454
000290 4a a5 eb 3c 0f 38 43 3a e6 74 b9 bc f4 ee 12 3c
       0.02876534 0.0007447013 -0.02263875 0.008968104
0002a0 70 4c b0 bc 28 7a b6 39 30 d7 eb 3b 74 68 6b 3c
       -0.021520823 0.0003480476 0.007197283 0.014368165
0002b0 c4 a4 0c ba ad 22 0c bd 92 b5 0e 3e 75 a6 3b bc
       -0.0005365128 -0.034212757 0.13936451 -0.011453261
0002c0 c7 df 99 bc 06 aa 8f bc ec 44 a4 3b fd eb dc 3c
       -0.018783463 -0.017537128 0.005013099 0.026967997
0002d0 e7 19 91 3a c1 59 0e 3c 34 d6 39 3d 50 a9 15 bd
       0.0011070342 0.008688391 0.045370296 -0.036538422
0002e0 32 aa 3c bb 31 8a 02 3e 7e 09 09 bc e1 5c 89 bc
       -0.0028787968 0.12748028 -0.0083640795 -0.01676792
0002f0 0c 4b 9e 3a 5d 13 88 3b ef 78 ca bd 57 32 a5 3c
       0.0012076809 0.004152699 -0.098863475 0.020165605
000300 63 ea 75 3d 71 81 e5 bb e6 ef 8f 3b 3f 75 c6 3c
       0.06003798 -0.007003956 0.004392612 0.02422583
000310 0e b8 1b 3a 23 dd eb 3d 6b d9 93 3c 1e 46 bf bc
       0.0005940207 0.11516788 0.018048009 -0.023348864
000320 07 1a ea bc a9 0b 07 b9 e6 05 c4 b9 2b 61 84 bd
       -0.028576864 -0.00012878947 -0.00037388428 -0.06463846
000330 ce 03 08 be ac ff b9 bb 30 81 3e 3c 9b d4 86 3c
       -0.13282701 -0.0056762304 0.01162748 0.0164588
000340 70 89 20 b8 06 07 2c bb 35 93 80 3c f4 ef 87 bd
       -3.827497e-05 -0.0026249303 0.015695194 -0.06637564
000350 4b 1a 16 3d 17 85 67 3d b2 9c ff bc c2 df e0 3c
       0.03664617 0.05652341 -0.031202648 0.027450446
000360 26 00 ec bc 5d c0 6d bd 12 37 a5 bb d8 90 39 3c
       -0.028808665 -0.05804478 -0.0050419653 0.011326037
000370 8c 25 7b bb b4 44 2a 3d 97 0e 53 bc f0 c0 7c 3d
       -0.003832194 0.041569427 -0.012881896 0.061707437
000380 ca 20 00 80 f5 1e 00 80 59 0d 00 80 b3 13 00 80
       -1.1762e-41 -1.1105e-41 -4.788e-42 -7.067e-42
000390 13 2b 00 80 35 2e 00 80 ea 33 00 00 24 24 00 00
       -1.5452e-41 -1.6576e-41 1.8623e-41 1.2965e-41
0003a0 5e 31 00 80 0a 24 00 00 51 31 00 00 f2 28 00 00
       -1.771e-41 1.2928e-41 1.7691e-41 1.4688e-41
0003b0 39 10 00 00 e2 35 00 80 bd 3d 00 80 41 14 00 80
       5.82e-42 -1.933e-41 -2.2148e-41 -7.266e-42
0003c0 f0 a4 e1 bd 48 a7 00 3c 99 02 47 3c 33 54 15 3d
       -0.110177875 0.007852383 0.012146615 0.03645725
0003d0 48 11 90 bd 9c d0 d3 bd c1 6b 61 3c 54 99 e9 bc
       -0.07034546 -0.103425235 0.013758601 -0.028515495
0003e0 3e 8d 36 bc b2 cf 43 ba 0f 1f e1 bc 7a 3d 82 bc
       -0.011142073 -0.00074696087 -0.02748063 -0.015898455
0003f0 f3 61 d5 3d 78 c8 8d bb a0 ca f8 bb 5b d3 81 ba
       0.10419073 -0.0043268763 -0.007592514 -0.0009904908

conv2.0.conv2c.0.conv1.weight f4 [16, 16, 1, 1]
000000 ad 91 f8 3c c7 ca dc 3c 5e c8 3d bc 91 6b ba 3c
       0.030342901 0.02695216 -0.011583416 0.02275637
000010 7b 27 be bc 38 8a a4 bd b4 34 53 3b dc d2 47 bb
       -0.023212185 -0.08034176 0.0032227458 -0.0030490672
000020 7b 4d 37 3c 99 95 0a 3d fa c4 be 3c 9b 6d 62 3c
       0.011187906 0.033834074 0.023287285 0.013820077
000030 2c 84 1b 3c 6d 10 4c ba 19 03 df bc b0 d3 85 3d
       0.009491961 -0.000778443 -0.027223157 0.06534517
000040 02 08 85 3d f9 66 a1 3d bc 3a 0b 3c c1 0b b9 bb
       0.06495668 0.078809686 0.00849789 -0.005647153
000050 6d 36 23 3d eb 1f 8d 3b f0 62 22 3d 7e fe 0c 3d
       0.039846826 0.0043067834 0.039645135 0.03442239
000060 fa 86 0d bd 63 3c 6f 3d 2d 27 95 3c e1 a7 6f bc
       -0.03455255 0.0584072 0.018207157 -0.014627428
000070 f0 5f c7 3d 8f e5 14 bd b7 e6 16 3d 80 bc 83 3d
       0.097350955 -0.036351737 0.03684112 0.06432438
000080 a7 4d 83 bc 70 3a bc bb 45 e8 7d 3d 7a d4 40 3d
       -0.016028238 -0.005744271 0.061989088 0.047077633
000090 f1 4a ab bc c8 b1 8b bd d6 6a 13 bd 7f 55 b2 3c
       -0.020909758 -0.068210185 -0.03599056 0.021769283
0000a0 a2 61 77 3d 69 43 e9 bb 0a e3 9d bb 78 c9 67 bd
       0.060395844 -0.0071186316 -0.004818325 -0.05658862
0000b0 58 c6 3e 3c ad d1 04 bd 46 5b 5e bc d7 5a 09 bd
       0.0116439685 -0.032426525 -0.013571566 -0.033533897
0000c0 a6 1f d0 3c e0 39 8f bd c4 08 84 bd 28 14 d4 bc
       0.025405716 -0.06993461 -0.064469844 -0.025888517
0000d0 67 63 69 bd 4d 9a f1 3c 52 6a 91 3e e5 67 62 3d
       -0.056979563 0.029492522 0.28401428 0.055274863
0000e0 0b fa 24 3d ba eb 88 bd 06 0e 8f bd 27 72 93 bd
       0.040277522 -0.06685586 -0.06985097 -0.07199507
0000f0 72 26 56 bc e1 b1 69 bc dd 71 97 bc b5 ed 45 3c
       -0.0130706895 -0.014263601 -0.018486911 0.0120806
000100 d6 ee b2 bc 00 d1 f0 bc bf 07 96 3c 01 9c bd bb
       -0.021842401 -0.029396534 0.01831424 -0.0057864194
000110 9c e3 88 3c 06 9a b2 3d 83 e9 8e 3c 78 12 0b bd
       0.016710095 0.08720784 0.017445331 -0.03395316
000120 61 df a4 3c b7 22 b9 bb e2 d5 48 bb 00 c3 b0 b9
       0.020126047 -0.0056498903 -0.0030645062 -0.00033714622
000130 2d 8c a3 3d 1e 42 84 3b 8c bd 3b bc 5d 3f 11 bc
       0.07985721 0.004036202 -0.011458766 -0.008865205
000140 95 25 1c bc 35 94 8f bd d1 64 88 3d 6d 76 18 3c
       -0.009530445 -0.0701069 0.06659854 0.009305579
000150 73 48 86 3d b5 1a 00 3d 13 e2 8b 3d c8 c4 0f 3d
       0.06556787 0.03127547 0.068302296 0.035099775
000160 b6 28 a6 3c 18 f9 99 bc 09 60 80 bc 77 35 82 bd
       0.020283084 -0.018795535 -0.015670793 -0.06357854
000170 c5 c6 48 bb 5f 67 ba 3c a5 a4 33 3d 3b ae e2 bb
       -0.0030636054 0.02275437 0.04385819 -0.0069177425
000180 00 2c ab 3b d5 61 d5 3d 55 f0 bc 3d 85 83 8d bc
       0.005223751 0.104190506 0.09225527 -0.017274627
000190 65 32 18 3d e3 8f 5a 3c d9 d9 7a be 26 4a 0f 3d
       0.037157435 0.013339969 -0.24497165 0.034982823
0001a0 9c 72 33 bd 29 67 28 bb e4 98 18 bc 70 17 00 3d
       -0.043810472 -0.0025696254 -0.009313796 0.03127235
0001b0 8d f0 17 3e 55 8b 70 bc a7 10 ca 3c fc 1f 13 bb
       0.14837857 -0.014681657 0.024666144 -0.0022449484
0001c0 e0 27 64 bc d0 e4 3d be 9f f1 c0 3d 0c ca 48 bc
       -0.013925523 -0.18544316 0.094210856 -0.012255203
0001d0 1e a8 a8 bc 41 8d 84 bb 73 74 05 bd 74 d7 bc 3d
       -0.020587977 -0.004045159 -0.032581758 0.09220782
0001e0 0b 0d 16 bd f4 77 03 3d 92 fe cb 3b bf 97 63 3e
       -0.036633532 0.032096818 0.0062254155 0.22225855
0001f0 97 3f ba 3d ac e2 c2 ba 39 51 ca 3d 94 57 bd bc
       0.0909416 -0.0014868579 0.09878773 -0.02311305
000200 69 41 99 bc d9 36 7d 3c 07 74 24 3d a8 9a 4c bc
       -0.018707948 0.015454971 0.040149715 -0.012488045
000210 de b2 0f 3d 5b 2e 17 3c a1 89 4d bd 2a 9c c2 3c
       0.03508269 0.009227361 -0.05018008 0.023756105
000220 d2 bd c1 bc 23 5d 21 bc 64 0c 08 bd 49 fa 46 bb
       -0.023650084 -0.009848866 -0.03321494 -0.0030361584
000230 97 64 d6 3c d5 dd e6 3c a9 97 e0 3c fc 29 ec ba
       0.026171012 0.02818195 0.027416067 -0.0018017883
000240 0c 1b 00 80 ee 31 00 00 9d 0e 00 00 0a 1b 00 00
       -9.703e-42 1.7911e-41 5.242e-42 9.7e-42
000250 80 15 00 00 af 3b 00 00 ed 1c 00 80 d7 13 00 00
       7.713e-42 2.141e-41 -1.0377e-41 7.117e-42
000260 b0 22 00 80 61 32 00 00 64 32 00 00 91 35 00 00
       -1.2444e-41 1.8073e-41 1.8077e-41 1.9216e-41
000270 22 2c 00 80 1a 2e 00 80 dd 27 00 80 44 2d 00 00
       -1.5832e-41 -1.6538e-41 -1.43e-41 1.6238e-41
000280 5c 6d f1 3c 5a 66 2f 3c 3c 9c 10 be 4c 71 6a bb
       0.029471092 0.010705555 -0.14122099 -0.0035773097
000290 b3 7c b4 bc 23 00 61 3c 79 7e 59 3e 34 12 d5 bb
       -0.022032117 0.013732943 0.21239652 -0.006502414
0002a0 50 97 a4 3c f3 30 b1 3c 59 5b 7f ba f5 c0 e4 bd
       0.020091683 0.021629786 -0.000974109 -0.11169616
0002b0 74 98 ba bd 13 fd cc 3b 65 3d 0d ba 6d bb 70 ba
       -0.091111094 0.0062557547 -0.00053878716 -0.0009183202
0002c0 85 f4 56 3c 44 5a d4 bb 44 78 8b 3c 97 e3 ac bc
       0.013119821 -0.006480487 0.01702512 -0.021104617
0002d0 4e 34 82 bc 23 6b ee 3a f6 ca ba bc 36 82 1d bb
       -0.015894081 0.0018189888 -0.022801857 -0.002403391
0002e0 1a 85 9e bc bc dd 92 3c 87 77 55 bc e7 56 42 3d
       -0.019350577 0.017927997 -0.013028986 0.047446158
0002f0 44 6b 0a be 02 17 0a bc 3c 3b 10 bc 0d b1 9c bb
       -0.13517481 -0.008428337 -0.008803185 -0.0047818483
000300 49 e5 b2 3d 31 cc fe bc 06 d0 73 bd be 02 32 bc
       0.08735139 -0.031103225 -0.05952456 -0.010864912
000310 14 d0 8f 3d f0 1f 87 3b 65 9b ef bc 77 ec ff ba
       0.0702211 0.0041236803 -0.029248903 -0.0019525428
000320 5f 33 1f 3d 13 00 0f 3e cc 3b 3e 3e 4b af 87 3c
       0.03886735 0.13964872 0.18577498 0.016563078
000330 c9 ea 5a 3b 4d b5 7a 3c 5b 75 74 3d bd ea d9 3d
       0.0033404103 0.015302015 0.05968223 0.10640476
000340 4d f8 0e 3d 81 df 07 3d 0f 2c 08 bd 3d 7c 8d 3d
       0.034904767 0.033172134 -0.033245143 0.06908462
000350 c1 fe 80 bb 75 87 41 bd 0c e4 ff 3a c9 1b c3 bc
       -0.003936619 -0.047248323 0.0019522919 -0.02381696
000360 42 76 a9 3c 84 fa 5d 3d db 19 49 3d 46 df b0 3c
       0.020686273 0.05419399 0.049096923 0.02159084
000370 b7 61 5b 3c fb 0e 33 bc d9 f2 32 3d d6 28 12 3d
       0.013389996 -0.010928865 0.04368863 0.035683475
000380 1b d9 32 3c 55 09 0c bd 31 8e ff 3d ea e1 47 bc
       0.01091602 -0.034188587 0.12478293 -0.012199858
000390 8e 7e a1 3c 47 55 6b 3a b9 78 32 be ae a9 19 3c
       0.019713666 0.0008977246 -0.17428865 0.009378834
0003a0 17 54 4d bc b4 da b8 3b ce 63 70 bc 19 94 e0 3d
       -0.012532256 0.005641306 -0.014672233 0.109657474
0003b0 ca 25 8a 3d b2 d4 f6 ba fa ca fb 3c e9 36 e0 bc
       0.06745489 -0.0018831699 0.030736435 -0.027369933
0003c0 1d c8 86 3b db e7 24 3d ea 0b fe bd b4 47 e7 3c
       0.004113211 0.040260177 -0.12404616 0.028232433
0003d0 e9 85 5f bd 52 76 0e bd 71 35 31 3e 43 d6 1e bd
       -0.054571066 -0.034780808 0.17305543 -0.038778555
0003e0 54 7a 25 bc 13 45 ae 3d 92 45 fd 3c 2f c4 03 be
       -0.010099966 0.085092686 0.030916963 -0.12867807
0003f0 45 41 ba bd ff 96 e9 bb 3a 83 31 3d 46 75 04 bd
       -0.090944804 -0.007128596 0.043338038 -0.032338403

conv2.0.conv2c.1.conv1.weight f4 [16, 16, 1, 1]
000000 a3 dd 87 bb 73 10 cc 3b f2 e9 fd 3b 28 89 c9 3b
       -0.004146294 0.006227547 0.0077488357 0.0061503835
000010 81 80 b9 37 10 09 03 bc 54 fc 3b 3c 14 67 25 3c
       2.2113558e-05 -0.007997766 0.011473734 0.0100953765
000020 c4 56 24 3d a2 1d 00 00 a4 9f 9e bb 09 da 32 bb
       0.04012181 1.063e-41 -0.004840808 -0.0027290604
000030 e5 1c 5f be 64 76 80 bd 25 6c 00 bc f3 08 40 b9
       -0.21788366 -0.06272581 -0.007838284 -0.0001831388
000040 6d 40 81 3d e6 bb 80 bc 58 15 57 bc 3f fc 1d 3c
       0.06311116 -0.015714597 -0.013127647 0.00964266
000050 0f 7b 14 3d 8d ff d8 bb 35 99 c8 bb ea 72 59 bb
       0.03625017 -0.006622261 -0.0061217793 -0.0033180066
000060 e9 de f7 3b 04 08 00 80 29 a1 e8 3d 94 6d d4 bb
       0.0075644148 -2.875e-42 0.11358864 -0.0064827893
000070 f2 d7 8f 3b 29 81 7a bd 04 2e 1a bd 48 e0 12 bb
       0.0043897564 -0.061158333 -0.03764154 -0.0022411514
000080 85 73 38 3d 6a 80 9f bb 00 ac 07 bc 86 a4 2c 3b
       0.045032043 -0.004867603 -0.008280754 0.002634318
000090 c8 8d a3 bd 2a 6e 88 3c bd 52 aa bc eb 6f 6f 3a
       -0.07986027 0.016654093 -0.020791406 0.00091338035
0000a0 c9 95 2c bd a1 03 00 00 04 f1 10 be 61 5b da 3b
       -0.042135034 1.302e-42 -0.1415444 0.0066637252
0000b0 6d 40 16 3c 58 f4 00 bd 42 1e fc 3c 5f ae b5 3a
       0.009170634 -0.031483024 0.030776147 0.0013861171
0000c0 f7 0c 5e 3c d0 e9 6c 3d 54 03 bc 3b bb 50 13 be
       0.013552896 0.05784017 0.0057377014 -0.14386265
0000d0 26 0d 46 3c 2a 95 14 bd 7f b5 f4 3d 7f b4 33 3c
       0.012088096 -0.036275066 0.1194868 0.010968327
0000e0 2a dc 41 3c 57 14 00 80 a2 bd 5d 38 1f 9d 81 bd
       0.011832276 -7.297e-42 5.2867115e-05 -0.063287966
0000f0 e9 6f 0e 3d b4 43 12 3c 01 50 9e bb bb 90 ed 3c
       0.034774695 0.0089272745 -0.0048313146 0.028999677
000100 13 85 ac 3c ae be d7 3c 27 85 67 bc 88 b3 e1 3d
       0.021059548 0.02633604 -0.014130867 0.11020571
000110 64 5e b0 3b 8a be 0a 3d ab 0f ad bd c8 a3 1a be
       0.005382346 0.03387312 -0.08450254 -0.1510154
000120 1f 3d 2c bc 86 07 00 00 6b e2 73 3b c3 38 a6 bd
       -0.010512619 2.699e-42 0.0037213813 -0.08116295
000130 3c 37 64 3b 5e ed d2 3b b3 09 db bb 28 ff 38 bb
       0.0034822961 0.006436988 -0.006684506 -0.0028228257
000140 52 45 d6 bc bf 29 1a 38 f0 6c 25 bc b6 ba 42 3b
       -0.026156101 3.675534e-05 -0.0100967735 0.002971334
000150 08 41 fd bb 16 8d 50 3a c3 89 68 bc 52 ec 30 39
       -0.0077286996 0.0007955594 -0.014193001 0.00016872704
000160 05 5a 92 3c 07 22 00 80 f5 66 10 be 55 8c 0e 3c
       0.01786519 -1.2207e-41 -0.14101775 0.00870045
000170 4f d9 65 3c a8 ac 55 3b fc 35 0e 3d 82 74 71 bd
       0.014028861 0.0032604132 0.034719452 -0.058949
000180 ff db 25 3d 90 a3 63 3a db 73 17 3d 2d ad cf bc
       0.040493008 0.00086837355 0.036975723 -0.025351131
000190 13 63 1a bd 5e 4d a6 bc 6a 42 53 3b b1 18 84 3b
       -0.03769214 -0.020300563 0.003223563 0.0040312638
0001a0 14 07 d2 bc de 22 00 80 c3 32 1b 3d b9 b3 01 3d
       -0.02563814 -1.2508e-41 0.037890207 0.031665538
0001b0 12 44 52 3d 08 4d 83 bd 70 8b 29 be c2 23 97 bd
       0.05133445 -0.06411177 -0.16557097 -0.07379867
0001c0 af 24 94 bc 72 72 e0 bd ae 03 c3 bd ad 38 be bb
       -0.018083898 -0.10959329 -0.09522186 -0.005805096
0001d0 f8 ba 45 3d 80 5f 23 bd 81 dc 9a bc 8b 2d 20 3c
       0.04827401 -0.039885998 -0.018903973 0.009776483
0001e0 e4 f1 be ba fe 17 00 00 de b1 a5 3b a3 26 fd 3c
       -0.0014567939 8.607e-42 0.005056604 0.030902212
0001f0 b1 fc e6 bc 75 d7 63 bc 3c ed 58 bb a8 9c fd bd
       -0.028196665 -0.013906349 -0.0033100387 -0.123833954
000200 72 bb 65 3d 20 76 72 bc 68 d6 f9 bb cd a7 5b bb
       0.056086965 -0.014798671 -0.007624436 -0.0033516765
000210 47 d2 f9 3c 84 dd db b6 d8 d8 bc 3c 79 87 68 3c
       0.030495776 -6.5524964e-06 0.023052618 0.014192455
000220 85 9b 32 3c 6c 0c 00 00 33 f5 97 bd c3 c0 d1 bb
       0.010901337 4.456e-42 -0.07419815 -0.006401153
000230 81 f7 be 3c b8 c3 77 bd 38 0e 87 3d 6b 01 ee 3c
       0.023311378 -0.060489386 0.06594509 0.02905341
000240 2c 9a b7 bb 02 44 af 3c 79 af 84 bb 18 55 3a 3d
       -0.0056030955 0.021394733 -0.0040492383 0.045491308
000250 b9 08 50 3b 69 ea 8a bd 10 da 62 bd 4f 87 8f 3d
       0.003174348 -0.067829914 -0.05538374 0.0700823
000260 50 ab 93 bc d8 1e 00 00 ab 26 85 3b 6e 66 8e 3c
       -0.018026024 1.1065e-41 0.0040634475 0.017382827
000270 e2 db 89 3b 1e b9 ae 3a bf c8 b8 3b 30 bd f3 3c
       0.0042071203 0.0013330316 0.005639165 0.029753298
000280 31 eb ef bc ab 77 42 bd 9d f1 25 3d b0 3c fd bc
       -0.029286953 -0.047477406 0.040513624 -0.030912727
000290 cb 99 8b 3b ab de 1e 3c ee 33 c1 bc 50 08 1a 3e
       0.004260277 0.009696643 -0.023584332 0.15042233
0002a0 ef 14 66 bd 5d 01 00 80 37 22 11 3c b3 b3 f1 3b
       -0.056172308 -4.89e-43 0.008858255 0.007376158
0002b0 64 03 11 bb 05 f7 df bc 4b 25 06 3c 02 78 bf 3c
       -0.0022127265 -0.027339468 0.008187602 0.023372654
0002c0 b3 d0 85 bd 86 d2 84 bc 7b c7 08 3d 29 2f 8d 3d
       -0.06533947 -0.016213667 0.033393364 0.06893761
0002d0 2a f1 bf bd 28 ce 70 bd 9e be c9 3c 40 8a 98 bc
       -0.0937217 -0.058790356 0.024627026 -0.01862061
0002e0 f4 08 00 bd 26 13 00 80 3b 1c c0 3c 9e 04 d9 3d
       -0.03125854 -6.869e-42 0.023450961 0.10596584
0002f0 85 df 10 bc f1 61 b8 bc 27 ea 13 3d 79 1d d1 3d
       -0.008842354 -0.02250764 0.036111977 0.102106996
000300 4f 0f 8e 3c 31 bc 1f 3c c0 81 90 bc 98 a7 9f 3d
       0.017341284 0.009749458 -0.017639995 0.07795638
000310 c9 40 ea 3c 84 94 ce bd 4c f0 31 bd 25 2c 27 3e
       0.028595345 -0.10086921 -0.043442056 0.16325434
000320 cc 81 7c 3c 5f 1c 00 80 6d 40 21 3b 83 11 8c 3d
       0.015411805 -1.0178e-41 0.002460505 0.068392776
000330 ca 57 b2 3c d0 84 59 ba c7 d1 5b 3b e6 d5 3e 3c
       0.021770377 -0.00082976837 0.0033541785 0.011647677
000340 95 ed ff 3c 1b 7c 74 bc a9 6d 83 bd c3 16 1a 3d
       0.031241218 -0.014922167 -0.064174004 0.037619364
000350 b1 68 ce 3c cf 52 07 3c c7 69 a1 bc 58 96 b2 bc
       0.025196405 0.008259489 -0.019703759 -0.021800205
000360 8c 05 e4 3b 81 1c 00 80 f4 5c 71 3d 16 71 87 bc
       0.006958669 -1.0225e-41 0.058926538 -0.016533416
000370 d6 62 00 3d 0b ec 86 bd 45 b5 04 be 09 be 87 3d
       0.031344257 -0.065879904 -0.12959774 0.06628043
000380 d1 c2 aa bc 4c 83 b1 3b f0 92 0f bb 7e f7 29 3d
       -0.020844849 0.005417263 -0.002190765 0.041495793
000390 78 5e 28 3b 8d 5a b0 3d d7 d0 b0 bd 4b 2e 9a bc
       0.0025691073 0.08611021 -0.08633583 -0.018820902
0003a0 4a 6a b2 bc a6 0d 00 80 2b d3 16 bc c6 bc 67 bd
       -0.021779198 -4.896e-42 -0.00920562 -0.056576513
0003b0 09 43 d7 3c 74 9a b7 bb b2 fa 09 bc 33 e3 14 3c
       0.026277082 -0.005603129 -0.008421587 0.009087372
0003c0 fb 59 22 3d e4 bf f5 3d c8 70 af 3b dc b4 67 3d
       0.039636593 0.11999491 0.0053540207 0.056568965
0003d0 87 13 6a 3d 7a d7 77 bd 80 66 11 be 84 a5 5e bd
       0.05714753 -0.06050823 -0.14199257 -0.054357067
0003e0 f0 fb 97 3c 9f 05 00 00 0f 79 d3 bc c8 0e bd bd
       0.01855275 2.016e-42 -0.025814561 -0.09231335
0003f0 22 b7 b9 3c 49 53 a6 3c 20 d3 c7 bc 9e fd c1 3b
       0.022670332 0.020303385 -0.024392664 0.005920126

conv2.0.conv2c.2.conv1.weight f4 [16, 16, 1, 1]
000000 e7 b7 89 3d 0f 7b b8 3d cb 29 0b 3c ac ed 80 3d
       0.0672453 0.090078466 0.008493851 0.06295332
000010 df 1f a1 3d f6 34 77 bc cb 38 bf 3d ff f4 e7 bd
       0.07867407 -0.01508831 0.09337004 -0.11326026
000020 8d 22 c2 3d e0 ce f8 bc 0d 5a 7e bc e1 f5 d0 bc
       0.09479246 -0.030372083 -0.0155243995 -0.02550787
000030 11 78 97 3d 6b db c5 3d 5c 55 df 3d a2 d6 2f bc
       0.07395948 0.09660991 0.10904953 -0.010732325
000040 8b ba 30 bc ee 91 0d bd 26 ab e5 3b a2 4b 45 3e
       -0.010786663 -0.034562998 0.007008928 0.19267133
000050 56 1c 2c 3e 4e 1c 40 3b 41 16 a1 bb ee 9e 88 bb
       0.16807684 0.0029313746 -0.004915983 -0.0041693365
000060 6b e1 40 bd 86 33 15 bd c3 c5 16 3b 70 97 36 3b
       -0.047089975 -0.03642609 0.0023006059 0.002786126
000070 c3 3f 39 3e fa d0 83 3b 27 6f 28 3d 40 5d 70 bd
       0.1809073 0.0040227147 0.041121628 -0.05868268
000080 bc dd 62 bd 14 19 28 bb 5a 4d 88 3c bd 4b c7 b8
       -0.055387244 -0.0025649713 0.016638447 -9.503167e-05
000090 c2 2c 4d 3d f0 6d ac bc 22 da 42 bc 3b 1a 44 3d
       0.050091513 -0.021048516 -0.011892827 0.047876578
0000a0 e2 de 31 bc ce 6b 69 bb 66 f9 38 bd 1c 11 78 3b
       -0.010856362 -0.0035617235 -0.04515972 0.0037851995
0000b0 d0 69 5c 3c f2 a2 34 bb 63 5b 4c bc dc bb 95 bd
       0.013452962 -0.0027562943 -0.01247296 -0.07311222
0000c0 40 cf 28 a9 64 55 bf 20 f0 0d 00 23 ab 1d 17 ac
       -3.7483254e-14 3.2413165e-19 6.941845e-18 -2.147486e-12
0000d0 8e ce d7 2b b7 01 84 a3 33 6f 9d 29 4a 41 28 16
       1.5333999e-12 -1.4312195e-17 6.9914906e-14 1.3591534e-25
0000e0 da 16 b5 24 c3 fd 74 25 95 25 86 26 d7 df 93 aa
       7.853495e-17 2.1249604e-16 9.308304e-16 -2.6267766e-13
0000f0 85 8e 47 2c 86 94 17 2d e2 6f f4 1d 89 b8 1a 25
       2.8358715e-12 8.616335e-12 6.4701946e-21 1.3419894e-16
000100 3c 3a b3 3b 95 99 a5 3c c1 ef 89 39 9d 06 03 bc
       0.0054695886 0.020214835 0.00026309307 -0.007997182
000110 ba 81 b1 bc 04 d7 56 bc dc af d0 bb a9 39 10 3d
       -0.021668304 -0.013112787 -0.0063686203 0.03521124
000120 f1 8e 19 3c a1 a0 a3 3d b1 ac 17 3e ce 54 b6 bd
       0.009372459 0.07989622 0.1481197 -0.08902894
000130 96 be 79 bd 28 87 70 bc 42 f1 c7 3c 8e 2c ab bb
       -0.060972773 -0.014680661 0.024407033 -0.005223817
000140 85 bb 41 bd a9 98 ac 3b 16 02 81 bd 67 da c1 bc
       -0.047297973 0.005267222 -0.06299226 -0.023663713
000150 5c 17 ab bd 95 21 33 3d a5 93 a5 bd ba 5e 96 3d
       -0.08354065 0.0437332 -0.080848016 0.073422864
000160 5f e5 8b bd 56 2c 7f bd 4e 96 23 3d 98 d5 94 3d
       -0.068308584 -0.06229814 0.039938264 0.07267302
000170 17 8d 02 3d 72 8a e8 bd dc cc 70 bd 14 c5 54 3c
       0.031872835 -0.11354531 -0.05878912 0.01298644
000180 2c 23 ef 3d 98 44 db bc 66 da e9 3c a9 f0 e6 bc
       0.116766304 -0.026766106 0.028546523 -0.028190928
000190 07 d3 94 3b 80 9d 21 bd c1 0d 92 3d ca eb f4 bc
       0.004541758 -0.039456844 0.071315296 -0.02989759
0001a0 92 49 5d 3c 74 2e 04 3d 2a 39 a1 bc a0 34 dc ba
       0.01350631 0.032270864 -0.019680578 -0.0016800351
0001b0 3e 63 88 bc 2a 80 d8 bb 74 6e a8 bc 36 4d 8d 3d
       -0.016648885 -0.006607075 -0.02056048 0.068994924
0001c0 b9 0f 2e ba cd c0 c9 3d f1 91 17 3c 36 24 78 bd
       -0.0006639916 0.09851227 0.009251104 -0.06058141
0001d0 d0 83 0d 3c b4 f5 99 bd 0f 15 36 bd 66 28 29 bd
       0.008637384 -0.07517567 -0.044453677 -0.041298293
0001e0 79 5c 27 3d 2b 35 94 bd 05 72 45 3d 55 12 0a 3d
       0.040859673 -0.072367035 0.04820444 0.03370889
0001f0 0f c1 d4 3b 4d 53 a1 ba 8e d9 c4 3c 2c ad 19 3c
       0.006492741 -0.0012308151 0.02402952 0.009379666
000200 a5 27 e4 3c 8d 12 4f 3d 23 85 48 bd e0 97 2a bc
       0.027850935 0.0505548 -0.048955094 -0.010412186
000210 9a d6 43 bd 34 e7 37 3d 32 fe 2d bc 79 90 9a bc
       -0.047812082 0.044898227 -0.010619687 -0.018867718
000220 76 bb 48 3d 1a d5 90 bc ba 8e fe bc 29 81 28 3d
       0.0490069 -0.01767974 -0.031073917 0.0411388
000230 55 8e 08 3c 4f 7f 4c bd 22 32 5c bd ca c2 31 3b
       0.008334716 -0.0499261 -0.053758748 0.002712416
000240 9a 69 9c 3d 1b d4 ef bc 9b 26 0b 3d 17 fa 90 3c
       0.076373294 -0.029275944 0.033972364 0.017697377
000250 c4 c5 ac 3b 06 b9 d4 bc f1 3d 20 bd 12 cd b2 bd
       0.005272599 -0.025967132 -0.039121572 -0.0873052
000260 55 93 3d bd 56 5e 18 bd 46 e0 e2 3c b5 3f 79 3c
       -0.046283085 -0.03719934 0.027694833 0.015212943
000270 8d a8 82 bb 6b 11 c2 bc 1f c3 04 3b af 6a 85 3b
       -0.003987378 -0.023689946 0.0020257903 0.0040715556
000280 46 e5 09 3e da a6 d4 3c d5 af b0 bc 1b c3 c1 bc
       0.13466367 0.025958467 -0.021568218 -0.023652604
000290 70 b5 13 3d 10 59 81 3d 4f 31 e1 3c c3 e4 26 bd
       0.036061704 0.063158154 0.027489332 -0.040745508
0002a0 86 af c5 bb a9 b9 58 bc 52 e4 10 bd f8 23 9c 3c
       -0.006032887 -0.013227859 -0.035373993 0.01906012
0002b0 91 90 24 bc a9 30 6d bc 53 e8 76 bd bd 1e 09 3d
       -0.010044233 -0.0144769335 -0.060280155 0.03347658
0002c0 8f ff 99 bc 8d c6 06 be 8c fe ec 3d 1a 30 92 bd
       -0.018798618 -0.13161679 0.115719885 -0.07138081
0002d0 fe f7 e1 bd e1 2c f3 bd dc 7b 2f be 30 19 9d bb
       -0.11033629 -0.11873794 -0.17137092 -0.0047942623
0002e0 ca a7 54 3d a4 2c 71 3c fc d0 5d bb 8b 53 3b bd
       0.05191783 0.014720116 -0.0033846488 -0.04573397
0002f0 03 c5 17 bd 1c 9d 00 be 39 f8 a9 39 e4 20 b9 bc
       -0.03705312 -0.12559932 0.00032419132 -0.022598691
000300 ea 5e af bb ce 04 33 bd 81 6b ad bc f6 6f 88 3d
       -0.005351891 -0.043705754 -0.021169426 0.0666198
000310 e7 72 d9 3a d6 65 43 3d ec 10 01 3d 9c 0e 8c bd
       0.001659003 0.04770454 0.03151028 -0.06838724
000320 93 e0 3e bc a3 39 ff 3d 90 14 4f 3d b0 d8 15 3e
       -0.011650222 0.12462165 0.05055672 0.14633441
000330 d8 1d 8f bd 9d 82 ef bb 06 0f ff bc 61 94 4f be
       -0.06988114 -0.0073092715 -0.031135093 -0.20271446
000340 c6 32 00 80 6c 31 00 80 b2 35 00 80 c6 1d 00 80
       -1.8214e-41 -1.7729e-41 -1.9262e-41 -1.068e-41
000350 9b 3c 00 80 e4 1d 00 80 48 2c 00 00 94 15 00 80
       -2.1741e-41 -1.0723e-41 1.5885e-41 -7.741e-42
000360 9d 2e 00 00 59 02 00 80 22 38 00 80 93 27 00 80
       1.6722e-41 -8.42e-43 -2.0137e-41 -1.4197e-41
000370 1a 31 00 00 3f 33 00 00 5f 23 00 00 c3 30 00 80
       1.7614e-41 1.8384e-41 1.2689e-41 -1.7492e-41
000380 bd df 4e bd 6f 33 6e 3b 7d c7 23 3d 9a b2 dc bb
       -0.050506342 0.0036346575 0.03998517 -0.006735158
000390 3b ee 90 3d 38 02 12 bd 16 29 bb 3c 44 67 31 bd
       0.07076689 -0.035646647 0.02284674 -0.043311372
0003a0 2a d4 f8 3b c6 c8 1a b9 31 4b cf bc 68 90 68 bd
       0.0075936513 -0.00014761378 -0.025304409 -0.05677834
0003b0 9f ff d1 3c 87 8a bf 3c 45 8e b5 bc c8 9a bd 3c
       0.025634585 0.023381485 -0.022162566 0.023145095
0003c0 e8 55 d2 bb 41 ae 2a bc 4a f1 dc bd 0b eb 22 3b
       -0.006418932 -0.010417522 -0.1078821 0.0024859335
0003d0 12 44 b3 3b 2a 71 25 bd 20 63 82 3d d3 58 8b 3c
       0.005470761 -0.040391125 0.06366563 0.017010128
0003e0 cc a6 78 3d 62 53 f1 3c 39 87 f1 3b dd c7 a3 bb
       0.060705945 0.029458705 0.007370856 -0.004998191
0003f0 86 59 76 bb f8 f7 d7 bd 19 e6 9f 3c c2 72 85 bc
       -0.0037589981 -0.10545343 0.019518899 -0.016290072

conv2.0.conv2d.0.conv1.weight f4 [16, 16, 1, 1]
000000 a3 ba 76 bd 82 f0 35 3c 17 44 a4 bc de 9c 93 bc
       -0.060236584 0.011104705 -0.020051999 -0.018019136
000010 0f 13 80 bd 1a ab 42 bd 35 50 15 bb c6 35 07 bd
       -0.06253635 -0.047526456 -0.0022783403 -0.033010267
000020 62 8d bc bc 94 2f d1 3b 90 3f 8d bb a3 e8 17 3d
       -0.023016635 0.0063838456 -0.0043105558 0.037087094
000030 cc 14 ad bd 61 92 87 bc 0c 86 cf 3c d3 d5 a2 3d
       -0.08451232 -0.016549291 0.025332473 0.0795094
000040 2a 56 64 3d ad 31 ed 39 f5 34 5b 3c 1b 41 ad bb
       0.055746235 0.00045241174 0.013379325 -0.005287302
000050 70 4a f1 3c 13 12 a2 3d f8 9e 7b 3c df 7c aa 3c
       0.02945444 0.07913604 0.015357725 0.020811496
000060 50 70 ab bc d9 1a 45 bb fc 2e c6 bb f9 e7 98 3c
       -0.020927578 -0.0030075817 -0.0060480814 0.0186653
000070 47 4a 9b 3c ed fc 73 3c 14 e3 83 bd 90 6c 20 be
       0.018956317 0.014891845 -0.06439796 -0.15666413
000080 f7 88 58 3d ea a1 b7 3d d5 80 e1 ba 9d 81 8b 3c
       0.052864995 0.089664295 -0.0017204533 0.017029578
000090 db a7 9a bd 4a 6a a4 bd 48 d1 09 3c 8b 2c 39 bd
       -0.07551547 -0.080280855 0.008411713 -0.045208495
0000a0 a8 93 4c bd aa b9 26 bc 55 80 23 bd 2f 0e 20 3e
       -0.049945503 -0.010176102 -0.03991731 0.1563041
0000b0 38 ea 40 be 81 a6 a2 3c b7 ae 29 bd 69 ba 6c bd
       -0.18839347 0.019854786 -0.041426387 -0.057794962
0000c0 26 2d 68 3d 16 f3 96 bd 03 9f 42 3c ad 45 da bc
       0.056683682 -0.07370584 0.011878732 -0.026644552
0000d0 18 3e 91 3d 8f fd ef 3c 00 70 09 bc e7 ab 96 3c
       0.070919216 0.02929571 -0.008388519 0.018392516
0000e0 ef 6a 2f 3c a6 95 04 3c fe c8 ef 3c 19 c5 f6 bd
       0.010706647 0.00809232 0.029270645 -0.12049312
0000f0 0f f7 b1 3d bd 5e 05 bd 43 a3 1e 3d e6 9e 8a bd
       0.08689701 -0.032561053 0.038729917 -0.06768589
000100 f3 dd 0f bd 10 84 93 3c 79 91 42 3d fa e4 46 3c
       -0.035123777 0.018007308 0.047502015 0.012139553
000110 c7 13 8a bd 42 f6 42 bc 29 de 28 3c d2 af 9c 3a
       -0.067420535 -0.011899533 0.010306873 0.0011954254
000120 b3 33 8a bd f8 bb 80 bd c5 61 af bd e3 a4 dc 3a
       -0.06748142 -0.06285852 -0.0856357 0.0016833808
000130 17 c6 df 3b d1 de 0d bc f7 ac 2f bc 0c 81 44 bd
       0.006829034 -0.008659081 -0.01072239 -0.04797463
000140 f1 2e 9d bd 57 0b 39 bd 93 4c e6 ba c2 be 6c bd
       -0.07674969 -0.04517683 -0.0017570428 -0.05779911
000150 da cd 41 3d b8 0f d8 3d 54 1c 44 bc 67 43 37 3d
       0.047315456 0.10549873 -0.011969645 0.044742014
000160 f4 39 0c 3c 98 6c 39 bd 11 2e 90 bd 75 ec 68 3c
       0.008558739 -0.04526958 -0.070400365 0.014216532
000170 eb 69 58 bd 25 16 d3 3c 82 5f ce bc bf 17 eb bd
       -0.052835386 0.025767395 -0.025192026 -0.114791386
000180 bf e2 0c 3e 70 c0 22 bc 96 c7 b7 bc f2 a8 a8 bc
       0.13758372 -0.009933576 -0.022434037 -0.020588372
000190 a7 ca b2 ba 20 8e 83 3b 44 44 d8 ba 37 a5 66 bb
       -0.0013640717 0.0040147454 -0.0016499837 -0.003519369
0001a0 24 b6 10 3b 33 c1 9c 3c 2c e5 8e bb 5e 58 da ba
       0.002208122 0.019135093 -0.0043608155 -0.0016658416
0001b0 04 0a fa bc 4e 70 54 3c 1b c9 99 3c 0d 6f 90 bd
       -0.030522354 0.012966229 0.018772652 -0.07052431
0001c0 13 b2 80 bd 8e 6e f1 ba 54 d5 9e bc 3c bc 44 bd
       -0.06283965 -0.0018419789 -0.019388832 -0.048031077
0001d0 ef e3 1a 3d 01 58 82 3d 68 51 7d 3b 76 04 41 3c
       0.03781503 0.06364442 0.0038653258 0.011780849
0001e0 42 26 36 3c 6b b2 72 bd 19 88 19 bd 14 e3 ae 3c
       0.01111752 -0.059252184 -0.03748331 0.021348514
0001f0 bb 81 af bc 30 b0 f1 3c 76 be 50 bc 9d 2d ad 3d
       -0.021424165 0.029502958 -0.012740722 0.08455966
000200 a1 85 dd bb d3 ef f7 3d 18 f6 de 3c 48 6b 50 3d
       -0.0067603146 0.1210629 0.027216956 0.05088356
000210 00 18 6b bd 28 17 0c be 52 72 06 3d 7f 34 cf bd
       -0.057395935 -0.13680708 0.032823868 -0.10117435
000220 38 dd ca bc 1f 8b c7 3c ef 94 c7 3b dd 4b 3d 3e
       -0.024763688 0.02435833 0.0060907523 0.18485971
000230 80 2f 95 be cc b8 ae bb 6f a2 b6 bc d1 cd cd ba
       -0.29137802 -0.005332088 -0.022294251 -0.0015701597
000240 b8 15 48 3d e3 1f 49 3d f9 22 aa bc 42 a1 40 bd
       0.048848838 0.049102675 -0.02076863 -0.047028787
000250 71 07 4e bc 1e 39 cf bd 93 27 4e bc f8 5d 29 bd
       -0.012575016 -0.10118316 -0.012582677 -0.04134938
000260 7c 83 70 ba 07 02 bf b9 c4 84 5e 3c b9 19 ae 3c
       -0.0009174866 -0.0003643187 0.0135814585 0.0212525
000270 1a 55 d3 ba c2 1c af 3c 38 a1 34 bb 75 4c 02 3d
       -0.0016123385 0.021376017 -0.0027561914 0.031811196
000280 66 b5 88 bc 1c e9 a4 bd c0 06 a7 3c 91 6d 9b 3c
       -0.01668806 -0.080522746 0.02038896 0.018973144
000290 ed fa b6 3c 7e bd da 3b 69 18 09 bc 9e 58 95 3d
       0.022336448 0.0066754213 -0.008367636 0.07292293
0002a0 ab 40 b7 3c 6d 80 bd 3d 56 25 df 3b 7d 43 e7 bd
       0.022369703 0.09253011 0.0068098707 -0.11292169
0002b0 22 ac b3 3d 48 69 0e bc f4 15 a6 bb 04 ab 71 3b
       0.08773066 -0.008692093 -0.005068535 0.0036875615
0002c0 c7 1e 38 3e 1a 46 93 bb ab 12 67 bc 69 81 af bc
       0.1798049 -0.0044944407 -0.014103572 -0.021424012
0002d0 c4 2b a8 bc 0a c7 89 bd 3d 90 71 bc 59 cf 25 3b
       -0.020528682 -0.06727417 -0.014743862 0.002530059
0002e0 90 f1 6d 3c f7 07 ae 3b a8 99 9d bc a5 3a 96 bc
       0.014522925 0.005311008 -0.019238308 -0.01833851
0002f0 d7 95 2b 3a 57 2b c4 bc e7 68 d5 3c d7 32 84 bd
       0.000654546 -0.023946447 0.026050998 -0.064550094
000300 12 85 e1 bb 33 b4 14 bd 2d ef 12 bc 44 80 20 3e
       -0.0068823183 -0.036304664 -0.008968157 0.1567393
000310 12 cb fe 3c b9 8c 36 3c 83 33 97 bc 2e 24 4b 3d
       0.03110269 0.011141949 -0.01845718 0.04959505
000320 8e 11 c8 bc 3f 73 03 bd 95 32 70 3d cb 3f b3 bc
       -0.024422433 -0.03209233 0.05864199 -0.021881005
000330 63 9e e2 ba 77 fd 0c 3d af 30 cb bc 8a 59 d4 bc
       -0.0017289635 0.03442141 -0.024803488 -0.025921602
000340 c8 64 9b 3c 1f f0 b7 bc 41 c4 08 3b b8 9b 3d bc
       0.018968955 -0.022453366 0.002086893 -0.011572771
000350 90 11 4b bc 9c 3b 69 3d b3 e4 36 bd 5a a4 4d bc
       -0.012394324 0.056941614 -0.0446517 -0.0125513915
000360 fb 71 a2 bc fd 51 d1 3b 26 e2 32 b9 05 17 8b bc
       -0.01982974 0.0063879476 -0.0001705965 -0.01697875
000370 0d 1e 79 3c c7 96 41 3c 9d 99 1a ba 4f ff 84 3c
       0.015204919 0.011815733 -0.0005897524 0.016235022
000380 38 f6 39 3b 68 b5 a3 bc 7c 8e c4 3b 1e a1 cb bb
       0.0028375518 -0.019983962 0.005998431 -0.006214275
000390 0b 46 13 bb 7f 18 de bb 78 28 96 bc 9d cc ce bc
       -0.0022472169 -0.0067778225 -0.018329844 -0.025244052
0003a0 66 7b 80 bc 23 7f 29 bb 7e 82 b5 b9 28 a5 91 bb
       -0.015683841 -0.0025863133 -0.00034620235 -0.004444737
0003b0 e8 8d 7e 3c 43 39 e4 bc a7 d8 ad ba 90 8f 49 bb
       0.015536763 -0.027859336 -0.001326342 -0.0030755736
0003c0 83 de 4d bb 49 60 85 bc 95 17 5f bc 18 63 c5 bd
       -0.0031413145 -0.016281264 -0.013616462 -0.09638041
0003d0 87 54 39 bd e0 e3 e2 3c 05 10 bd bc 8f 78 fe bb
       -0.045246627 0.02769655 -0.023078928 -0.0077658365
0003e0 49 a8 bf bc e5 c7 90 bd a6 61 78 bd b9 26 76 3c
       -0.023395674 -0.07069377 -0.06064 0.015023881
0003f0 4b 3f 8a bd 55 cc db 3c 3c 99 3d 3c 48 4f 8f bc
       -0.067503534 0.026830832 0.011572178 -0.017493859
